…
ll,"metadata":{"colab":{"base_uri":"https://localhost:8080/"},"id":"SmsmEg77xaN8","executionInfo":{"status":"ok","timestamp":1668831081592,"user_tz":300,"elapsed":488,"user":{"displayName":"Kent Butler","userId":"16905390697657349542"}},"outputId":"7e2f53f8-b838-484c-ec8b-932620c4f391"},"outputs":[{"output_type":"stream","name":"stdout","text":["Building model....\n"]},{"output_type":"execute_result","data":{"text/plain":["Histopath_CNN(\n","  (conv0): Sequential(\n","    (0): nn_debug()\n","    (1): CenterCrop(size=(54, 54))\n","  )\n","  (conv): Sequential(\n","    (0): nn_debug()\n","    (1): Conv2d(3, 96, kernel_size=(7, 7), stride=(1, 1), padding=(2, 2))\n","    (2): nn_debug()\n","    (3): BatchNorm2d(96, eps=1e-05, momentum=0.1, affine=True, track_running_stats=True)\n","    (4): Tanh()\n","    (5): MaxPool2d(kernel_size=4, stride=1, padding=2, dilation=1, ceil_mode=False)\n","    (6): nn_debug()\n","    (7): Conv2d(96, 192, kernel_size=(3, 3), stride=(2, 2), padding=(1, 1))\n","    (8): BatchNorm2d(192, eps=1e-05, momentum=0.1, affine=True, track_running_stats=True)\n","    (9): nn_debug()\n","    (10): Tanh()\n","    (11): MaxPool2d(kernel_size=3, stride=1, padding=1, dilation=1, ceil_mode=False)\n","    (12): Conv2d(192, 128, kernel_size=(3, 3), stride=(1, 1), padding=(1, 1))\n","    (13): BatchNorm2d(128, eps=1e-05, momentum=0.1, affine=True, track_running_stats=True)\n","    (14): Tanh()\n","    (15): nn_debug()\n","    (16): Conv2d(128, 64, kernel_size=(4, 4), stride=(2, 2), padding=(1, 1))\n","    (17): BatchNorm2d(64, eps=1e-05, momentum=0.1, affine=True, track_running_stats=True)\n","    (18): Tanh()\n","    (19): nn_debug()\n","    (20): MaxPool2d(kernel_size=4, stride=2, padding=1, dilation=1, ceil_mode=False)\n","    (21): nn_debug()\n","    (22): Flatten(start_dim=1, end_dim=-1)\n","  )\n","  (fc): Sequential(\n","    (0): nn_debug()\n","    (1): Linear(in_features=2304, out_features=2880, bias=True)\n","    (2): ReLU()\n","    (3): Linear(in_features=2880, out_features=1728, bias=True)\n","    (4): ReLU()\n","    (5): Linear(in_features=1728, out_features=1, bias=True)\n","    (6): Sigmoid()\n","  )\n",")"]},"metadata":{},"execution_count":147}],"source":["print('Building model....')\n","# Instantiate CNN model\n","model = Histopath_CNN(debug)\n","\n","# Move model to GPU if available\n","model.to(run_on_device)"]},{"cell_type":"code","execution_count":null,"metadata":{"id":"3z4JzKPHc0mc","executionInfo":{"status":"ok
…
